…
    C:\Poekti\nSeti\my\test_horse3.jpg 
    Лошадь с вероятностью  0.99838305 , МРТ мозга с вероятностью  0.001616994

-----------------------------------------------------------------

Зависемости:

TensorFlow: 2.4.4
Keras: 2.4.3
OpenCV: 4.5.1
NumPy: 1.19.5
Pandas: 1.2.5
pillow 8.2.0
numpy 1.19.5

-----------------------------------------------------------------

Лог консоли:

Model: "sequential"
_________________________________________________________________
Layer (type)                 Output Shape              Param #
=================================================================
conv2d (Conv2D)              (None, 185, 185, 16)      4112
_________________________________________________________________
max_pooling2d (MaxPooling2D) (None, 92, 92, 16)        0
_________________________________________________________________
dropout (Dropout)            (None, 92, 92, 16)        0
_________________________________________________________________
conv2d_1 (Conv2D)            (None, 77, 77, 32)        131104
_________________________________________________________________
max_pooling2d_1 (MaxPooling2 (None, 38, 38, 32)        0
_________________________________________________________________
dropout_1 (Dropout)          (None, 38, 38, 32)        0
_________________________________________________________________
conv2d_2 (Conv2D)            (None, 23, 23, 64)        524352
_________________________________________________________________
max_pooling2d_2 (MaxPooling2 (None, 11, 11, 64)        0
_________________________________________________________________
flatten (Flatten)            (None, 7744)              0
_________________________________________________________________
dense (Dense)                (None, 64)                495680
_________________________________________________________________
dropout_2 (Dropout)          (None, 64)                0
_________________________________________________________________
dense_1 (Dense)              (None, 2)                 130
=================================================================
Total params: 1,155,378
Trainable params: 1,155,378
Non-trainable params: 0
_________________________________________________________________
None
Epoch 1/8
11056/11056 [==============================] - 4222s 382ms/step - loss: 0.2755 - accuracy: 0.8853 - val_loss: 0.4418 - val_accuracy: 0.7552
Epoch 2/8
11056/11056 [==============================] - 4175s 378ms/step - loss: 0.2316 - accuracy: 0.8869 - val_loss: 0.4081 - val_accuracy: 0.7552
…
